…
vgg16_cnn [<keras.engine.training.Model object at 0x2b8569a61f50>, <keras.engine.training.Model object at 0x2b863993f910>]
xception_cnn [<keras.engine.training.Model object at 0x2b863934c110>, <keras.engine.training.Model object at 0x2b8639a3cf50>]
## Adding  5  top models.
^^^^^^ base part of MIX model
____________________________________________________________________________________________________
Layer (type)                     Output Shape          Param #     Connected to                     
====================================================================================================
input_1 (InputLayer)             (None, 640, 640, 3)   0                                            
____________________________________________________________________________________________________
zero_padding2d_1 (ZeroPadding2D) (None, 646, 646, 3)   0                                            
____________________________________________________________________________________________________
conv1 (Conv2D)                   (None, 320, 320, 64)  9472                                         
____________________________________________________________________________________________________
bn_conv1 (BatchNormalization)    (None, 320, 320, 64)  256                                          
____________________________________________________________________________________________________
activation_1 (Activation)        (None, 320, 320, 64)  0                                            
____________________________________________________________________________________________________
max_pooling2d_1 (MaxPooling2D)   (None, 159, 159, 64)  0                                            
____________________________________________________________________________________________________
res2a_branch2a (Conv2D)          (None, 159, 159, 64)  4160                                         
____________________________________________________________________________________________________
bn2a_branch2a (BatchNormalizatio (None, 159, 159, 64)  256                                          
____________________________________________________________________________________________________
activation_2 (Activation)        (None, 159, 159, 64)  0                                            
____________________________________________________________________________________________________
res2a_branch2b (Conv2D)          (None, 159, 159, 64)  36928                                        
____________________________________________________________________________________________________
bn2a_branch2b (BatchNormalizatio (None, 159, 159, 64)  256                                          
____________________________________________________________________________________________________
activation_3 (Activation)        (None, 159, 159, 64)  0                                            
____________________________________________________________________________________________________
res2a_branch2c (Conv2D)          (None, 159, 159, 256) 16640                                        
____________________________________________________________________________________________________
res2a_branch1 (Conv2D)           (None, 159, 159, 256) 16640                                        
____________________________________________________________________________________________________
bn2a_branch2c (BatchNormalizatio (None, 159, 159, 256) 1024                                         
____________________________________________________________________________________________________
bn2a_branch1 (BatchNormalization (None, 159, 159, 256) 1024                                         
____________________________________________________________________________________________________
add_1 (Add)                      (None, 159, 159, 256) 0                                            
____________________________________________________________________________________________________
activation_4 (Activation)        (None, 159, 159, 256) 0                                            
____________________________________________________________________________________________________
res2b_branch2a (Conv2D)          (None, 159, 159, 64)  16448                                        
____________________________________________________________________________________________________
bn2b_branch2a (BatchNormalizatio (None, 159, 159, 64)  256                                          
____________________________________________________________________________________________________
activation_5 (Activation)        (None, 159, 159, 64)  0                                            
____________________________________________________________________________________________________
res2b_branch2b (Conv2D)          (None, 159, 159, 64)  36928                                        
____________________________________________________________________________________________________
bn2b_branch2b (BatchNormalizatio (None, 159, 159, 64)  256                                          
____________________________________________________________________________________________________
activation_6 (Activation)        (None, 159, 159, 64)  0                                            
____________________________________________________________________________________________________
res2b_branch2c (Conv2D)          (None, 159, 159, 256) 16640                                        
____________________________________________________________________________________________________
bn2b_branch2c (BatchNormalizatio (None, 159, 159, 256) 1024                                         
____________________________________________________________________________________________________
add_2 (Add)                      (None, 159, 159, 256) 0                                            
____________________________________________________________________________________________________
activation_7 (Activation)        (None, 159, 159, 256) 0                                            
____________________________________________________________________________________________________
res2c_branch2a (Conv2D)          (None, 159, 159, 64)  16448                                        
____________________________________________________________________________________________________
bn2c_branch2a (BatchNormalizatio (None, 159, 159, 64)  256                                          
____________________________________________________________________________________________________
activation_8 (Activation)        (None, 159, 159, 64)  0                                            
____________________________________________________________________________________________________
res2c_branch2b (Conv2D)          (None, 159, 159, 64)  36928                                        
____________________________________________________________________________________________________
bn2c_branch2b (BatchNormalizatio (None, 159, 159, 64)  256                                          
____________________________________________________________________________________________________
activation_9 (Activation)        (None, 159, 159, 64)  0                                            
____________________________________________________________________________________________________
res2c_branch2c (Conv2D)          (None, 159, 159, 256) 16640                                        
____________________________________________________________________________________________________
bn2c_branch2c (BatchNormalizatio (None, 159, 159, 256) 1024                                         
____________________________________________________________________________________________________
add_3 (Add)                      (None, 159, 159, 256) 0                                            
____________________________________________________________________________________________________
activation_10 (Activation)       (None, 159, 159, 256) 0                                            
____________________________________________________________________________________________________
res3a_branch2a (Conv2D)          (None, 80, 80, 128)   32896                                        
____________________________________________________________________________________________________
bn3a_branch2a (BatchNormalizatio (None, 80, 80, 128)   512                                          
____________________________________________________________________________________________________
activation_11 (Activation)       (None, 80, 80, 128)   0                                            
____________________________________________________________________________________________________
res3a_branch2b (Conv2D)          (None, 80, 80, 128)   147584                                       
____________________________________________________________________________________________________
bn3a_branch2b (BatchNormalizatio (None, 80, 80, 128)   512                                          
____________________________________________________________________________________________________
activation_12 (Activation)       (None, 80, 80, 128)   0                                            
____________________________________________________________________________________________________
res3a_branch2c (Conv2D)          (None, 80, 80, 512)   66048                                        
____________________________________________________________________________________________________
res3a_branch1 (Conv2D)           (None, 80, 80, 512)   131584                                       
____________________________________________________________________________________________________
bn3a_branch2c (BatchNormalizatio (None, 80, 80, 512)   2048                                         
____________________________________________________________________________________________________
bn3a_branch1 (BatchNormalization (None, 80, 80, 512)   2048                                         
____________________________________________________________________________________________________
add_4 (Add)                      (None, 80, 80, 512)   0                                            
____________________________________________________________________________________________________
activation_13 (Activation)       (None, 80, 80, 512)   0                                            
____________________________________________________________________________________________________
res3b_branch2a (Conv2D)          (None, 80, 80, 128)   65664                                        
____________________________________________________________________________________________________
bn3b_branch2a (BatchNormalizatio (None, 80, 80, 128)   512                                          
____________________________________________________________________________________________________
activation_14 (Activation)       (None, 80, 80, 128)   0                                            
____________________________________________________________________________________________________
res3b_branch2b (Conv2D)          (None, 80, 80, 128)   147584                                       
____________________________________________________________________________________________________
bn3b_branch2b (BatchNormalizatio (None, 80, 80, 128)   512                                          
____________________________________________________________________________________________________
activation_15 (Activation)       (None, 80, 80, 128)   0                                            
____________________________________________________________________________________________________
res3b_branch2c (Conv2D)          (None, 80, 80, 512)   66048                                        
____________________________________________________________________________________________________
bn3b_branch2c (BatchNormalizatio (None, 80, 80, 512)   2048                                         
____________________________________________________________________________________________________
add_5 (Add)                      (None, 80, 80, 512)   0                                            
____________________________________________________________________________________________________
activation_16 (Activation)       (None, 80, 80, 512)   0                                            
____________________________________________________________________________________________________
res3c_branch2a (Conv2D)          (None, 80, 80, 128)   65664                                        
____________________________________________________________________________________________________
bn3c_branch2a (BatchNormalizatio (None, 80, 80, 128)   512                                          
____________________________________________________________________________________________________
activation_17 (Activation)       (None, 80, 80, 128)   0                                            
____________________________________________________________________________________________________
res3c_branch2b (Conv2D)          (None, 80, 80, 128)   147584                                       
____________________________________________________________________________________________________
bn3c_branch2b (BatchNormalizatio (None, 80, 80, 128)   512                                          
____________________________________________________________________________________________________
activation_18 (Activation)       (None, 80, 80, 128)   0                                            
____________________________________________________________________________________________________
res3c_branch2c (Conv2D)          (None, 80, 80, 512)   66048                                        
____________________________________________________________________________________________________
bn3c_branch2c (BatchNormalizatio (None, 80, 80, 512)   2048                                         
____________________________________________________________________________________________________
add_6 (Add)                      (None, 80, 80, 512)   0                                            
____________________________________________________________________________________________________
activation_19 (Activation)       (None, 80, 80, 512)   0                                            
____________________________________________________________________________________________________
res3d_branch2a (Conv2D)          (None, 80, 80, 128)   65664                                        
____________________________________________________________________________________________________
bn3d_branch2a (BatchNormalizatio (None, 80, 80, 128)   512                                          
____________________________________________________________________________________________________
activation_20 (Activation)       (None, 80, 80, 128)   0                                            
____________________________________________________________________________________________________
res3d_branch2b (Conv2D)          (None, 80, 80, 128)   147584                                       
____________________________________________________________________________________________________
bn3d_branch2b (BatchNormalizatio (None, 80, 80, 128)   512                                          
____________________________________________________________________________________________________
activation_21 (Activation)       (None, 80, 80, 128)   0                                            
____________________________________________________________________________________________________
res3d_branch2c (Conv2D)          (None, 80, 80, 512)   66048                                        
____________________________________________________________________________________________________
bn3d_branch2c (BatchNormalizatio (None, 80, 80, 512)   2048                                         
____________________________________________________________________________________________________
add_7 (Add)                      (None, 80, 80, 512)   0                                            
____________________________________________________________________________________________________
activation_22 (Activation)       (None, 80, 80, 512)   0                                            
____________________________________________________________________________________________________
res4a_branch2a (Conv2D)          (None, 40, 40, 256)   131328                                       
____________________________________________________________________________________________________
bn4a_branch2a (BatchNormalizatio (None, 40, 40, 256)   1024                                         
____________________________________________________________________________________________________
activation_23 (Activation)       (None, 40, 40, 256)   0                                            
____________________________________________________________________________________________________
res4a_branch2b (Conv2D)          (None, 40, 40, 256)   590080                                       
____________________________________________________________________________________________________
bn4a_branch2b (BatchNormalizatio (None, 40, 40, 256)   1024                                         
____________________________________________________________________________________________________
activation_24 (Activation)       (None, 40, 40, 256)   0                                            
____________________________________________________________________________________________________
res4a_branch2c (Conv2D)          (None, 40, 40, 1024)  263168                                       
____________________________________________________________________________________________________
res4a_branch1 (Conv2D)           (None, 40, 40, 1024)  525312                                       
____________________________________________________________________________________________________
bn4a_branch2c (BatchNormalizatio (None, 40, 40, 1024)  4096                                         
____________________________________________________________________________________________________
bn4a_branch1 (BatchNormalization (None, 40, 40, 1024)  4096                                         
____________________________________________________________________________________________________
add_8 (Add)                      (None, 40, 40, 1024)  0                                            
____________________________________________________________________________________________________
activation_25 (Activation)       (None, 40, 40, 1024)  0                                            
____________________________________________________________________________________________________
res4b_branch2a (Conv2D)          (None, 40, 40, 256)   262400                                       
____________________________________________________________________________________________________
bn4b_branch2a (BatchNormalizatio (None, 40, 40, 256)   1024                                         
____________________________________________________________________________________________________
activation_26 (Activation)       (None, 40, 40, 256)   0                                            
____________________________________________________________________________________________________
res4b_branch2b (Conv2D)          (None, 40, 40, 256)   590080                                       
____________________________________________________________________________________________________
bn4b_branch2b (BatchNormalizatio (None, 40, 40, 256)   1024                                         
____________________________________________________________________________________________________
activation_27 (Activation)       (None, 40, 40, 256)   0                                            
____________________________________________________________________________________________________
res4b_branch2c (Conv2D)          (None, 40, 40, 1024)  263168                                       
____________________________________________________________________________________________________
bn4b_branch2c (BatchNormalizatio (None, 40, 40, 1024)  4096                                         
____________________________________________________________________________________________________
add_9 (Add)                      (None, 40, 40, 1024)  0                                            
____________________________________________________________________________________________________
activation_28 (Activation)       (None, 40, 40, 1024)  0                                            
____________________________________________________________________________________________________
res4c_branch2a (Conv2D)          (None, 40, 40, 256)   262400                                       
____________________________________________________________________________________________________
bn4c_branch2a (BatchNormalizatio (None, 40, 40, 256)   1024                                         
____________________________________________________________________________________________________
activation_29 (Activation)       (None, 40, 40, 256)   0                                            
____________________________________________________________________________________________________
res4c_branch2b (Conv2D)          (None, 40, 40, 256)   590080                                       
____________________________________________________________________________________________________
bn4c_branch2b (BatchNormalizatio (None, 40, 40, 256)   1024                                         
____________________________________________________________________________________________________
activation_30 (Activation)       (None, 40, 40, 256)   0                                            
____________________________________________________________________________________________________
res4c_branch2c (Conv2D)          (None, 40, 40, 1024)  263168                                       
____________________________________________________________________________________________________
bn4c_branch2c (BatchNormalizatio (None, 40, 40, 1024)  4096                                         
____________________________________________________________________________________________________
add_10 (Add)                     (None, 40, 40, 1024)  0                                            
____________________________________________________________________________________________________
activation_31 (Activation)       (None, 40, 40, 1024)  0                                            
____________________________________________________________________________________________________
res4d_branch2a (Conv2D)          (None, 40, 40, 256)   262400                                       
____________________________________________________________________________________________________
bn4d_branch2a (BatchNormalizatio (None, 40, 40, 256)   1024                                         
____________________________________________________________________________________________________
activation_32 (Activation)       (None, 40, 40, 256)   0                                            
____________________________________________________________________________________________________
res4d_branch2b (Conv2D)          (None, 40, 40, 256)   590080                                       
____________________________________________________________________________________________________
bn4d_branch2b (BatchNormalizatio (None, 40, 40, 256)   1024                                         
____________________________________________________________________________________________________
activation_33 (Activation)       (None, 40, 40, 256)   0                                            
____________________________________________________________________________________________________
res4d_branch2c (Conv2D)          (None, 40, 40, 1024)  263168                                       
____________________________________________________________________________________________________
bn4d_branch2c (BatchNormalizatio (None, 40, 40, 1024)  4096                                         
____________________________________________________________________________________________________
add_11 (Add)                     (None, 40, 40, 1024)  0                                            
____________________________________________________________________________________________________
activation_34 (Activation)       (None, 40, 40, 1024)  0                                            
____________________________________________________________________________________________________
res4e_branch2a (Conv2D)          (None, 40, 40, 256)   262400                                       
____________________________________________________________________________________________________
bn4e_branch2a (BatchNormalizatio (None, 40, 40, 256)   1024                                         
____________________________________________________________________________________________________
activation_35 (Activation)       (None, 40, 40, 256)   0                                            
____________________________________________________________________________________________________
res4e_branch2b (Conv2D)          (None, 40, 40, 256)   590080                                       
____________________________________________________________________________________________________
bn4e_branch2b (BatchNormalizatio (None, 40, 40, 256)   1024                                         
____________________________________________________________________________________________________
activation_36 (Activation)       (None, 40, 40, 256)   0                                            
____________________________________________________________________________________________________
res4e_branch2c (Conv2D)          (None, 40, 40, 1024)  263168                                       
____________________________________________________________________________________________________
bn4e_branch2c (BatchNormalizatio (None, 40, 40, 1024)  4096                                         
____________________________________________________________________________________________________
add_12 (Add)                     (None, 40, 40, 1024)  0                                            
____________________________________________________________________________________________________
activation_37 (Activation)       (None, 40, 40, 1024)  0                                            
____________________________________________________________________________________________________
res4f_branch2a (Conv2D)          (None, 40, 40, 256)   262400                                       
____________________________________________________________________________________________________
bn4f_branch2a (BatchNormalizatio (None, 40, 40, 256)   1024                                         
____________________________________________________________________________________________________
activation_38 (Activation)       (None, 40, 40, 256)   0                                            
____________________________________________________________________________________________________
res4f_branch2b (Conv2D)          (None, 40, 40, 256)   590080                                       
____________________________________________________________________________________________________
bn4f_branch2b (BatchNormalizatio (None, 40, 40, 256)   1024                                         
____________________________________________________________________________________________________
activation_39 (Activation)       (None, 40, 40, 256)   0                                            
____________________________________________________________________________________________________
res4f_branch2c (Conv2D)          (None, 40, 40, 1024)  263168                                       
____________________________________________________________________________________________________
bn4f_branch2c (BatchNormalizatio (None, 40, 40, 1024)  4096                                         
____________________________________________________________________________________________________
add_13 (Add)                     (None, 40, 40, 1024)  0                                            
____________________________________________________________________________________________________
activation_40 (Activation)       (None, 40, 40, 1024)  0                                            
____________________________________________________________________________________________________
res5a_branch2a (Conv2D)          (None, 20, 20, 512)   524800                                       
____________________________________________________________________________________________________
bn5a_branch2a (BatchNormalizatio (None, 20, 20, 512)   2048                                         
____________________________________________________________________________________________________
activation_41 (Activation)       (None, 20, 20, 512)   0                                            
____________________________________________________________________________________________________
res5a_branch2b (Conv2D)          (None, 20, 20, 512)   2359808                                      
____________________________________________________________________________________________________
bn5a_branch2b (BatchNormalizatio (None, 20, 20, 512)   2048                                         
____________________________________________________________________________________________________
activation_42 (Activation)       (None, 20, 20, 512)   0                                            
____________________________________________________________________________________________________
res5a_branch2c (Conv2D)          (None, 20, 20, 2048)  1050624                                      
____________________________________________________________________________________________________
res5a_branch1 (Conv2D)           (None, 20, 20, 2048)  2099200                                      
____________________________________________________________________________________________________
bn5a_branch2c (BatchNormalizatio (None, 20, 20, 2048)  8192                                         
____________________________________________________________________________________________________
bn5a_branch1 (BatchNormalization (None, 20, 20, 2048)  8192                                         
____________________________________________________________________________________________________
add_14 (Add)                     (None, 20, 20, 2048)  0                                            
____________________________________________________________________________________________________
activation_43 (Activation)       (None, 20, 20, 2048)  0                                            
____________________________________________________________________________________________________
res5b_branch2a (Conv2D)          (None, 20, 20, 512)   1049088                                      
____________________________________________________________________________________________________
bn5b_branch2a (BatchNormalizatio (None, 20, 20, 512)   2048                                         
____________________________________________________________________________________________________
activation_44 (Activation)       (None, 20, 20, 512)   0                                            
____________________________________________________________________________________________________
res5b_branch2b (Conv2D)          (None, 20, 20, 512)   2359808                                      
____________________________________________________________________________________________________
bn5b_branch2b (BatchNormalizatio (None, 20, 20, 512)   2048                                         
____________________________________________________________________________________________________
activation_45 (Activation)       (None, 20, 20, 512)   0                                            
____________________________________________________________________________________________________
res5b_branch2c (Conv2D)          (None, 20, 20, 2048)  1050624                                      
____________________________________________________________________________________________________
bn5b_branch2c (BatchNormalizatio (None, 20, 20, 2048)  8192                                         
____________________________________________________________________________________________________
add_15 (Add)                     (None, 20, 20, 2048)  0                                            
____________________________________________________________________________________________________
activation_46 (Activation)       (None, 20, 20, 2048)  0                                            
____________________________________________________________________________________________________
res5c_branch2a (Conv2D)          (None, 20, 20, 512)   1049088                                      
____________________________________________________________________________________________________
bn5c_branch2a (BatchNormalizatio (None, 20, 20, 512)   2048                                         
____________________________________________________________________________________________________
activation_47 (Activation)       (None, 20, 20, 512)   0                                            
____________________________________________________________________________________________________
res5c_branch2b (Conv2D)          (None, 20, 20, 512)   2359808                                      
____________________________________________________________________________________________________
bn5c_branch2b (BatchNormalizatio (None, 20, 20, 512)   2048                                         
____________________________________________________________________________________________________
activation_48 (Activation)       (None, 20, 20, 512)   0                                            
____________________________________________________________________________________________________
res5c_branch2c (Conv2D)          (None, 20, 20, 2048)  1050624                                      
____________________________________________________________________________________________________
bn5c_branch2c (BatchNormalizatio (None, 20, 20, 2048)  8192                                         
____________________________________________________________________________________________________
add_16 (Add)                     (None, 20, 20, 2048)  0                                            
____________________________________________________________________________________________________
activation_49 (Activation)       (None, 20, 20, 2048)  0                                            
____________________________________________________________________________________________________
avg_pool (AveragePooling2D)      (None, 2, 2, 2048)    0                                            
====================================================================================================
Total params: 23,587,712
Trainable params: 23,534,592
Non-trainable params: 53,120
____________________________________________________________________________________________________
^^^^^^ top part of MIX model
____________________________________________________________________________________________________
Layer (type)                     Output Shape          Param #     Connected to                     
====================================================================================================
input_6 (InputLayer)             (None, 594)           0                                            
____________________________________________________________________________________________________
dense_1 (Dense)                  (None, 256)           152320                                       
____________________________________________________________________________________________________
input_7 (InputLayer)             (None, 2, 2, 2048)    0                                            
____________________________________________________________________________________________________
dropout_1 (Dropout)              (None, 256)           0                                            
____________________________________________________________________________________________________
flatten_1 (Flatten)              (None, 8192)          0                                            
____________________________________________________________________________________________________
concatenate_3 (Concatenate)      (None, 8448)          0                                            
____________________________________________________________________________________________________
dense_2 (Dense)                  (None, 256)           2162944                                      
____________________________________________________________________________________________________
dropout_2 (Dropout)              (None, 256)           0                                            
____________________________________________________________________________________________________
dense_3 (Dense)                  (None, 256)           65792                                        
____________________________________________________________________________________________________
dropout_3 (Dropout)              (None, 256)           0                                            
____________________________________________________________________________________________________
dense_4 (Dense)                  (None, 256)           65792                                        
____________________________________________________________________________________________________
dropout_4 (Dropout)              (None, 256)           0                                            
____________________________________________________________________________________________________
dense_5 (Dense)                  (None, 1)             257                                          
====================================================================================================
Total params: 2,447,105
Trainable params: 2,447,105
Non-trainable params: 0
____________________________________________________________________________________________________
^^^^^^ base part of MIX model
____________________________________________________________________________________________________
Layer (type)                     Output Shape          Param #     Connected to                     
====================================================================================================
input_2 (InputLayer)             (None, 640, 640, 3)   0                                            
____________________________________________________________________________________________________
conv2d_1 (Conv2D)                (None, 319, 319, 32)  864                                          
____________________________________________________________________________________________________
batch_normalization_1 (BatchNorm (None, 319, 319, 32)  96                                           
____________________________________________________________________________________________________
activation_50 (Activation)       (None, 319, 319, 32)  0                                            
____________________________________________________________________________________________________
conv2d_2 (Conv2D)                (None, 317, 317, 32)  9216                                         
____________________________________________________________________________________________________
batch_normalization_2 (BatchNorm (None, 317, 317, 32)  96                                           
____________________________________________________________________________________________________
activation_51 (Activation)       (None, 317, 317, 32)  0                                            
____________________________________________________________________________________________________
conv2d_3 (Conv2D)                (None, 317, 317, 64)  18432                                        
____________________________________________________________________________________________________
batch_normalization_3 (BatchNorm (None, 317, 317, 64)  192                                          
____________________________________________________________________________________________________
activation_52 (Activation)       (None, 317, 317, 64)  0                                            
____________________________________________________________________________________________________
max_pooling2d_2 (MaxPooling2D)   (None, 158, 158, 64)  0                                            
____________________________________________________________________________________________________
conv2d_4 (Conv2D)                (None, 158, 158, 80)  5120                                         
____________________________________________________________________________________________________
batch_normalization_4 (BatchNorm (None, 158, 158, 80)  240                                          
____________________________________________________________________________________________________
activation_53 (Activation)       (None, 158, 158, 80)  0                                            
____________________________________________________________________________________________________
conv2d_5 (Conv2D)                (None, 156, 156, 192) 138240                                       
____________________________________________________________________________________________________
batch_normalization_5 (BatchNorm (None, 156, 156, 192) 576                                          
____________________________________________________________________________________________________
activation_54 (Activation)       (None, 156, 156, 192) 0                                            
____________________________________________________________________________________________________
max_pooling2d_3 (MaxPooling2D)   (None, 77, 77, 192)   0                                            
____________________________________________________________________________________________________
conv2d_9 (Conv2D)                (None, 77, 77, 64)    12288                                        
____________________________________________________________________________________________________
batch_normalization_9 (BatchNorm (None, 77, 77, 64)    192                                          
____________________________________________________________________________________________________
activation_58 (Activation)       (None, 77, 77, 64)    0                                            
____________________________________________________________________________________________________
conv2d_7 (Conv2D)                (None, 77, 77, 48)    9216                                         
____________________________________________________________________________________________________
conv2d_10 (Conv2D)               (None, 77, 77, 96)    55296                                        
____________________________________________________________________________________________________
batch_normalization_7 (BatchNorm (None, 77, 77, 48)    144                                          
____________________________________________________________________________________________________
batch_normalization_10 (BatchNor (None, 77, 77, 96)    288                                          
____________________________________________________________________________________________________
activation_56 (Activation)       (None, 77, 77, 48)    0                                            
____________________________________________________________________________________________________
activation_59 (Activation)       (None, 77, 77, 96)    0                                            
____________________________________________________________________________________________________
average_pooling2d_1 (AveragePool (None, 77, 77, 192)   0                                            
____________________________________________________________________________________________________
conv2d_6 (Conv2D)                (None, 77, 77, 64)    12288                                        
____________________________________________________________________________________________________
conv2d_8 (Conv2D)                (None, 77, 77, 64)    76800                                        
____________________________________________________________________________________________________
conv2d_11 (Conv2D)               (None, 77, 77, 96)    82944                                        
____________________________________________________________________________________________________
conv2d_12 (Conv2D)               (None, 77, 77, 32)    6144                                         
____________________________________________________________________________________________________
batch_normalization_6 (BatchNorm (None, 77, 77, 64)    192                                          
____________________________________________________________________________________________________
batch_normalization_8 (BatchNorm (None, 77, 77, 64)    192                                          
____________________________________________________________________________________________________
batch_normalization_11 (BatchNor (None, 77, 77, 96)    288                                          
____________________________________________________________________________________________________
batch_normalization_12 (BatchNor (None, 77, 77, 32)    96                                           
____________________________________________________________________________________________________
activation_55 (Activation)       (None, 77, 77, 64)    0                                            
____________________________________________________________________________________________________
activation_57 (Activation)       (None, 77, 77, 64)    0                                            
____________________________________________________________________________________________________
activation_60 (Activation)       (None, 77, 77, 96)    0                                            
____________________________________________________________________________________________________
activation_61 (Activation)       (None, 77, 77, 32)    0                                            
____________________________________________________________________________________________________
mixed0 (Concatenate)             (None, 77, 77, 256)   0                                            
____________________________________________________________________________________________________
conv2d_16 (Conv2D)               (None, 77, 77, 64)    16384                                        
____________________________________________________________________________________________________
batch_normalization_16 (BatchNor (None, 77, 77, 64)    192                                          
____________________________________________________________________________________________________
activation_65 (Activation)       (None, 77, 77, 64)    0                                            
____________________________________________________________________________________________________
conv2d_14 (Conv2D)               (None, 77, 77, 48)    12288                                        
____________________________________________________________________________________________________
conv2d_17 (Conv2D)               (None, 77, 77, 96)    55296                                        
____________________________________________________________________________________________________
batch_normalization_14 (BatchNor (None, 77, 77, 48)    144                                          
____________________________________________________________________________________________________
batch_normalization_17 (BatchNor (None, 77, 77, 96)    288                                          
____________________________________________________________________________________________________
activation_63 (Activation)       (None, 77, 77, 48)    0                                            
____________________________________________________________________________________________________
activation_66 (Activation)       (None, 77, 77, 96)    0                                            
____________________________________________________________________________________________________
average_pooling2d_2 (AveragePool (None, 77, 77, 256)   0                                            
____________________________________________________________________________________________________
conv2d_13 (Conv2D)               (None, 77, 77, 64)    16384                                        
____________________________________________________________________________________________________
conv2d_15 (Conv2D)               (None, 77, 77, 64)    76800                                        
____________________________________________________________________________________________________
conv2d_18 (Conv2D)               (None, 77, 77, 96)    82944                                        
____________________________________________________________________________________________________
conv2d_19 (Conv2D)               (None, 77, 77, 64)    16384                                        
____________________________________________________________________________________________________
batch_normalization_13 (BatchNor (None, 77, 77, 64)    192                                          
____________________________________________________________________________________________________
batch_normalization_15 (BatchNor (None, 77, 77, 64)    192                                          
____________________________________________________________________________________________________
batch_normalization_18 (BatchNor (None, 77, 77, 96)    288                                          
____________________________________________________________________________________________________
batch_normalization_19 (BatchNor (None, 77, 77, 64)    192                                          
____________________________________________________________________________________________________
activation_62 (Activation)       (None, 77, 77, 64)    0                                            
____________________________________________________________________________________________________
activation_64 (Activation)       (None, 77, 77, 64)    0                                            
____________________________________________________________________________________________________
activation_67 (Activation)       (None, 77, 77, 96)    0                                            
____________________________________________________________________________________________________
activation_68 (Activation)       (None, 77, 77, 64)    0                                            
____________________________________________________________________________________________________
mixed1 (Concatenate)             (None, 77, 77, 288)   0                                            
____________________________________________________________________________________________________
conv2d_23 (Conv2D)               (None, 77, 77, 64)    18432                                        
____________________________________________________________________________________________________
batch_normalization_23 (BatchNor (None, 77, 77, 64)    192                                          
____________________________________________________________________________________________________
activation_72 (Activation)       (None, 77, 77, 64)    0                                            
____________________________________________________________________________________________________
conv2d_21 (Conv2D)               (None, 77, 77, 48)    13824                                        
____________________________________________________________________________________________________
conv2d_24 (Conv2D)               (None, 77, 77, 96)    55296                                        
____________________________________________________________________________________________________
batch_normalization_21 (BatchNor (None, 77, 77, 48)    144                                          
____________________________________________________________________________________________________
batch_normalization_24 (BatchNor (None, 77, 77, 96)    288                                          
____________________________________________________________________________________________________
activation_70 (Activation)       (None, 77, 77, 48)    0                                            
____________________________________________________________________________________________________
activation_73 (Activation)       (None, 77, 77, 96)    0                                            
____________________________________________________________________________________________________
average_pooling2d_3 (AveragePool (None, 77, 77, 288)   0                                            
____________________________________________________________________________________________________
conv2d_20 (Conv2D)               (None, 77, 77, 64)    18432                                        
____________________________________________________________________________________________________
conv2d_22 (Conv2D)               (None, 77, 77, 64)    76800                                        
____________________________________________________________________________________________________
conv2d_25 (Conv2D)               (None, 77, 77, 96)    82944                                        
____________________________________________________________________________________________________
conv2d_26 (Conv2D)               (None, 77, 77, 64)    18432                                        
____________________________________________________________________________________________________
batch_normalization_20 (BatchNor (None, 77, 77, 64)    192                                          
____________________________________________________________________________________________________
batch_normalization_22 (BatchNor (None, 77, 77, 64)    192                                          
____________________________________________________________________________________________________
batch_normalization_25 (BatchNor (None, 77, 77, 96)    288                                          
____________________________________________________________________________________________________
batch_normalization_26 (BatchNor (None, 77, 77, 64)    192                                          
____________________________________________________________________________________________________
activation_69 (Activation)       (None, 77, 77, 64)    0                                            
____________________________________________________________________________________________________
activation_71 (Activation)       (None, 77, 77, 64)    0                                            
____________________________________________________________________________________________________
activation_74 (Activation)       (None, 77, 77, 96)    0                                            
____________________________________________________________________________________________________
activation_75 (Activation)       (None, 77, 77, 64)    0                                            
____________________________________________________________________________________________________
mixed2 (Concatenate)             (None, 77, 77, 288)   0                                            
____________________________________________________________________________________________________
conv2d_28 (Conv2D)               (None, 77, 77, 64)    18432                                        
____________________________________________________________________________________________________
batch_normalization_28 (BatchNor (None, 77, 77, 64)    192                                          
____________________________________________________________________________________________________
activation_77 (Activation)       (None, 77, 77, 64)    0                                            
____________________________________________________________________________________________________
conv2d_29 (Conv2D)               (None, 77, 77, 96)    55296                                        
____________________________________________________________________________________________________
batch_normalization_29 (BatchNor (None, 77, 77, 96)    288                                          
____________________________________________________________________________________________________
activation_78 (Activation)       (None, 77, 77, 96)    0                                            
____________________________________________________________________________________________________
conv2d_27 (Conv2D)               (None, 38, 38, 384)   995328                                       
____________________________________________________________________________________________________
conv2d_30 (Conv2D)               (None, 38, 38, 96)    82944                                        
____________________________________________________________________________________________________
batch_normalization_27 (BatchNor (None, 38, 38, 384)   1152                                         
____________________________________________________________________________________________________
batch_normalization_30 (BatchNor (None, 38, 38, 96)    288                                          
____________________________________________________________________________________________________
activation_76 (Activation)       (None, 38, 38, 384)   0                                            
____________________________________________________________________________________________________
activation_79 (Activation)       (None, 38, 38, 96)    0                                            
____________________________________________________________________________________________________
max_pooling2d_4 (MaxPooling2D)   (None, 38, 38, 288)   0                                            
____________________________________________________________________________________________________
mixed3 (Concatenate)             (None, 38, 38, 768)   0                                            
____________________________________________________________________________________________________
conv2d_35 (Conv2D)               (None, 38, 38, 128)   98304                                        
____________________________________________________________________________________________________
batch_normalization_35 (BatchNor (None, 38, 38, 128)   384                                          
____________________________________________________________________________________________________
activation_84 (Activation)       (None, 38, 38, 128)   0                                            
____________________________________________________________________________________________________
conv2d_36 (Conv2D)               (None, 38, 38, 128)   114688                                       
____________________________________________________________________________________________________
batch_normalization_36 (BatchNor (None, 38, 38, 128)   384                                          
____________________________________________________________________________________________________
activation_85 (Activation)       (None, 38, 38, 128)   0                                            
____________________________________________________________________________________________________
conv2d_32 (Conv2D)               (None, 38, 38, 128)   98304                                        
____________________________________________________________________________________________________
conv2d_37 (Conv2D)               (None, 38, 38, 128)   114688                                       
____________________________________________________________________________________________________
batch_normalization_32 (BatchNor (None, 38, 38, 128)   384                                          
____________________________________________________________________________________________________
batch_normalization_37 (BatchNor (None, 38, 38, 128)   384                                          
____________________________________________________________________________________________________
activation_81 (Activation)       (None, 38, 38, 128)   0                                            
____________________________________________________________________________________________________
activation_86 (Activation)       (None, 38, 38, 128)   0                                            
____________________________________________________________________________________________________
conv2d_33 (Conv2D)               (None, 38, 38, 128)   114688                                       
____________________________________________________________________________________________________
conv2d_38 (Conv2D)               (None, 38, 38, 128)   114688                                       
____________________________________________________________________________________________________
batch_normalization_33 (BatchNor (None, 38, 38, 128)   384                                          
____________________________________________________________________________________________________
batch_normalization_38 (BatchNor (None, 38, 38, 128)   384                                          
____________________________________________________________________________________________________
activation_82 (Activation)       (None, 38, 38, 128)   0                                            
____________________________________________________________________________________________________
activation_87 (Activation)       (None, 38, 38, 128)   0                                            
____________________________________________________________________________________________________
average_pooling2d_4 (AveragePool (None, 38, 38, 768)   0                                            
____________________________________________________________________________________________________
conv2d_31 (Conv2D)               (None, 38, 38, 192)   147456                                       
____________________________________________________________________________________________________
conv2d_34 (Conv2D)               (None, 38, 38, 192)   172032                                       
____________________________________________________________________________________________________
conv2d_39 (Conv2D)               (None, 38, 38, 192)   172032                                       
____________________________________________________________________________________________________
conv2d_40 (Conv2D)               (None, 38, 38, 192)   147456                                       
____________________________________________________________________________________________________
batch_normalization_31 (BatchNor (None, 38, 38, 192)   576                                          
____________________________________________________________________________________________________
batch_normalization_34 (BatchNor (None, 38, 38, 192)   576                                          
____________________________________________________________________________________________________
batch_normalization_39 (BatchNor (None, 38, 38, 192)   576                                          
____________________________________________________________________________________________________
batch_normalization_40 (BatchNor (None, 38, 38, 192)   576                                          
____________________________________________________________________________________________________
activation_80 (Activation)       (None, 38, 38, 192)   0                                            
____________________________________________________________________________________________________
activation_83 (Activation)       (None, 38, 38, 192)   0                                            
____________________________________________________________________________________________________
activation_88 (Activation)       (None, 38, 38, 192)   0                                            
____________________________________________________________________________________________________
activation_89 (Activation)       (None, 38, 38, 192)   0                                            
____________________________________________________________________________________________________
mixed4 (Concatenate)             (None, 38, 38, 768)   0                                            
____________________________________________________________________________________________________
conv2d_45 (Conv2D)               (None, 38, 38, 160)   122880                                       
____________________________________________________________________________________________________
batch_normalization_45 (BatchNor (None, 38, 38, 160)   480                                          
____________________________________________________________________________________________________
activation_94 (Activation)       (None, 38, 38, 160)   0                                            
____________________________________________________________________________________________________
conv2d_46 (Conv2D)               (None, 38, 38, 160)   179200                                       
____________________________________________________________________________________________________
batch_normalization_46 (BatchNor (None, 38, 38, 160)   480                                          
____________________________________________________________________________________________________
activation_95 (Activation)       (None, 38, 38, 160)   0                                            
____________________________________________________________________________________________________
conv2d_42 (Conv2D)               (None, 38, 38, 160)   122880                                       
____________________________________________________________________________________________________
conv2d_47 (Conv2D)               (None, 38, 38, 160)   179200                                       
____________________________________________________________________________________________________
batch_normalization_42 (BatchNor (None, 38, 38, 160)   480                                          
____________________________________________________________________________________________________
batch_normalization_47 (BatchNor (None, 38, 38, 160)   480                                          
____________________________________________________________________________________________________
activation_91 (Activation)       (None, 38, 38, 160)   0                                            
____________________________________________________________________________________________________
activation_96 (Activation)       (None, 38, 38, 160)   0                                            
____________________________________________________________________________________________________
conv2d_43 (Conv2D)               (None, 38, 38, 160)   179200                                       
____________________________________________________________________________________________________
conv2d_48 (Conv2D)               (None, 38, 38, 160)   179200                                       
____________________________________________________________________________________________________
batch_normalization_43 (BatchNor (None, 38, 38, 160)   480                                          
____________________________________________________________________________________________________
batch_normalization_48 (BatchNor (None, 38, 38, 160)   480                                          
____________________________________________________________________________________________________
activation_92 (Activation)       (None, 38, 38, 160)   0                                            
____________________________________________________________________________________________________
activation_97 (Activation)       (None, 38, 38, 160)   0                                            
____________________________________________________________________________________________________
average_pooling2d_5 (AveragePool (None, 38, 38, 768)   0                                            
____________________________________________________________________________________________________
conv2d_41 (Conv2D)               (None, 38, 38, 192)   147456                                       
____________________________________________________________________________________________________
conv2d_44 (Conv2D)               (None, 38, 38, 192)   215040                                       
____________________________________________________________________________________________________
conv2d_49 (Conv2D)               (None, 38, 38, 192)   215040                                       
____________________________________________________________________________________________________
conv2d_50 (Conv2D)               (None, 38, 38, 192)   147456                                       
____________________________________________________________________________________________________
batch_normalization_41 (BatchNor (None, 38, 38, 192)   576                                          
____________________________________________________________________________________________________
batch_normalization_44 (BatchNor (None, 38, 38, 192)   576                                          
____________________________________________________________________________________________________
batch_normalization_49 (BatchNor (None, 38, 38, 192)   576                                          
____________________________________________________________________________________________________
batch_normalization_50 (BatchNor (None, 38, 38, 192)   576                                          
____________________________________________________________________________________________________
activation_90 (Activation)       (None, 38, 38, 192)   0                                            
____________________________________________________________________________________________________
activation_93 (Activation)       (None, 38, 38, 192)   0                                            
____________________________________________________________________________________________________
activation_98 (Activation)       (None, 38, 38, 192)   0                                            
____________________________________________________________________________________________________
activation_99 (Activation)       (None, 38, 38, 192)   0                                            
____________________________________________________________________________________________________
mixed5 (Concatenate)             (None, 38, 38, 768)   0                                            
____________________________________________________________________________________________________
conv2d_55 (Conv2D)               (None, 38, 38, 160)   122880                                       
____________________________________________________________________________________________________
batch_normalization_55 (BatchNor (None, 38, 38, 160)   480                                          
____________________________________________________________________________________________________
activation_104 (Activation)      (None, 38, 38, 160)   0                                            
____________________________________________________________________________________________________
conv2d_56 (Conv2D)               (None, 38, 38, 160)   179200                                       
____________________________________________________________________________________________________
batch_normalization_56 (BatchNor (None, 38, 38, 160)   480                                          
____________________________________________________________________________________________________
activation_105 (Activation)      (None, 38, 38, 160)   0                                            
____________________________________________________________________________________________________
conv2d_52 (Conv2D)               (None, 38, 38, 160)   122880                                       
____________________________________________________________________________________________________
conv2d_57 (Conv2D)               (None, 38, 38, 160)   179200                                       
____________________________________________________________________________________________________
batch_normalization_52 (BatchNor (None, 38, 38, 160)   480                                          
____________________________________________________________________________________________________
batch_normalization_57 (BatchNor (None, 38, 38, 160)   480                                          
____________________________________________________________________________________________________
activation_101 (Activation)      (None, 38, 38, 160)   0                                            
____________________________________________________________________________________________________
activation_106 (Activation)      (None, 38, 38, 160)   0                                            
____________________________________________________________________________________________________
conv2d_53 (Conv2D)               (None, 38, 38, 160)   179200                                       
____________________________________________________________________________________________________
conv2d_58 (Conv2D)               (None, 38, 38, 160)   179200                                       
____________________________________________________________________________________________________
batch_normalization_53 (BatchNor (None, 38, 38, 160)   480                                          
____________________________________________________________________________________________________
batch_normalization_58 (BatchNor (None, 38, 38, 160)   480                                          
____________________________________________________________________________________________________
activation_102 (Activation)      (None, 38, 38, 160)   0                                            
____________________________________________________________________________________________________
activation_107 (Activation)      (None, 38, 38, 160)   0                                            
____________________________________________________________________________________________________
average_pooling2d_6 (AveragePool (None, 38, 38, 768)   0                                            
____________________________________________________________________________________________________
conv2d_51 (Conv2D)               (None, 38, 38, 192)   147456                                       
____________________________________________________________________________________________________
conv2d_54 (Conv2D)               (None, 38, 38, 192)   215040                                       
____________________________________________________________________________________________________
conv2d_59 (Conv2D)               (None, 38, 38, 192)   215040                                       
____________________________________________________________________________________________________
conv2d_60 (Conv2D)               (None, 38, 38, 192)   147456                                       
____________________________________________________________________________________________________
batch_normalization_51 (BatchNor (None, 38, 38, 192)   576                                          
____________________________________________________________________________________________________
batch_normalization_54 (BatchNor (None, 38, 38, 192)   576                                          
____________________________________________________________________________________________________
batch_normalization_59 (BatchNor (None, 38, 38, 192)   576                                          
____________________________________________________________________________________________________
batch_normalization_60 (BatchNor (None, 38, 38, 192)   576                                          
____________________________________________________________________________________________________
activation_100 (Activation)      (None, 38, 38, 192)   0                                            
____________________________________________________________________________________________________
activation_103 (Activation)      (None, 38, 38, 192)   0                                            
____________________________________________________________________________________________________
activation_108 (Activation)      (None, 38, 38, 192)   0                                            
____________________________________________________________________________________________________
activation_109 (Activation)      (None, 38, 38, 192)   0                                            
____________________________________________________________________________________________________
mixed6 (Concatenate)             (None, 38, 38, 768)   0                                            
____________________________________________________________________________________________________
conv2d_65 (Conv2D)               (None, 38, 38, 192)   147456                                       
____________________________________________________________________________________________________
batch_normalization_65 (BatchNor (None, 38, 38, 192)   576                                          
____________________________________________________________________________________________________
activation_114 (Activation)      (None, 38, 38, 192)   0                                            
____________________________________________________________________________________________________
conv2d_66 (Conv2D)               (None, 38, 38, 192)   258048                                       
____________________________________________________________________________________________________
batch_normalization_66 (BatchNor (None, 38, 38, 192)   576                                          
____________________________________________________________________________________________________
activation_115 (Activation)      (None, 38, 38, 192)   0                                            
____________________________________________________________________________________________________
conv2d_62 (Conv2D)               (None, 38, 38, 192)   147456                                       
____________________________________________________________________________________________________
conv2d_67 (Conv2D)               (None, 38, 38, 192)   258048                                       
____________________________________________________________________________________________________
batch_normalization_62 (BatchNor (None, 38, 38, 192)   576                                          
____________________________________________________________________________________________________
batch_normalization_67 (BatchNor (None, 38, 38, 192)   576                                          
____________________________________________________________________________________________________
activation_111 (Activation)      (None, 38, 38, 192)   0                                            
____________________________________________________________________________________________________
activation_116 (Activation)      (None, 38, 38, 192)   0                                            
____________________________________________________________________________________________________
conv2d_63 (Conv2D)               (None, 38, 38, 192)   258048                                       
____________________________________________________________________________________________________
conv2d_68 (Conv2D)               (None, 38, 38, 192)   258048                                       
____________________________________________________________________________________________________
batch_normalization_63 (BatchNor (None, 38, 38, 192)   576                                          
____________________________________________________________________________________________________
batch_normalization_68 (BatchNor (None, 38, 38, 192)   576                                          
____________________________________________________________________________________________________
activation_112 (Activation)      (None, 38, 38, 192)   0                                            
____________________________________________________________________________________________________
activation_117 (Activation)      (None, 38, 38, 192)   0                                            
____________________________________________________________________________________________________
average_pooling2d_7 (AveragePool (None, 38, 38, 768)   0                                            
____________________________________________________________________________________________________
conv2d_61 (Conv2D)               (None, 38, 38, 192)   147456                                       
____________________________________________________________________________________________________
conv2d_64 (Conv2D)               (None, 38, 38, 192)   258048                                       
____________________________________________________________________________________________________
conv2d_69 (Conv2D)               (None, 38, 38, 192)   258048                                       
____________________________________________________________________________________________________
conv2d_70 (Conv2D)               (None, 38, 38, 192)   147456                                       
____________________________________________________________________________________________________
batch_normalization_61 (BatchNor (None, 38, 38, 192)   576                                          
____________________________________________________________________________________________________
batch_normalization_64 (BatchNor (None, 38, 38, 192)   576                                          
____________________________________________________________________________________________________
batch_normalization_69 (BatchNor (None, 38, 38, 192)   576                                          
____________________________________________________________________________________________________
batch_normalization_70 (BatchNor (None, 38, 38, 192)   576                                          
____________________________________________________________________________________________________
activation_110 (Activation)      (None, 38, 38, 192)   0                                            
____________________________________________________________________________________________________
activation_113 (Activation)      (None, 38, 38, 192)   0                                            
____________________________________________________________________________________________________
activation_118 (Activation)      (None, 38, 38, 192)   0                                            
____________________________________________________________________________________________________
activation_119 (Activation)      (None, 38, 38, 192)   0                                            
____________________________________________________________________________________________________
mixed7 (Concatenate)             (None, 38, 38, 768)   0                                            
____________________________________________________________________________________________________
conv2d_73 (Conv2D)               (None, 38, 38, 192)   147456                                       
____________________________________________________________________________________________________
batch_normalization_73 (BatchNor (None, 38, 38, 192)   576                                          
____________________________________________________________________________________________________
activation_122 (Activation)      (None, 38, 38, 192)   0                                            
____________________________________________________________________________________________________
conv2d_74 (Conv2D)               (None, 38, 38, 192)   258048                                       
____________________________________________________________________________________________________
batch_normalization_74 (BatchNor (None, 38, 38, 192)   576                                          
____________________________________________________________________________________________________
activation_123 (Activation)      (None, 38, 38, 192)   0                                            
____________________________________________________________________________________________________
conv2d_71 (Conv2D)               (None, 38, 38, 192)   147456                                       
____________________________________________________________________________________________________
conv2d_75 (Conv2D)               (None, 38, 38, 192)   258048                                       
____________________________________________________________________________________________________
batch_normalization_71 (BatchNor (None, 38, 38, 192)   576                                          
____________________________________________________________________________________________________
batch_normalization_75 (BatchNor (None, 38, 38, 192)   576                                          
____________________________________________________________________________________________________
activation_120 (Activation)      (None, 38, 38, 192)   0                                            
____________________________________________________________________________________________________
activation_124 (Activation)      (None, 38, 38, 192)   0                                            
____________________________________________________________________________________________________
conv2d_72 (Conv2D)               (None, 18, 18, 320)   552960                                       
____________________________________________________________________________________________________
conv2d_76 (Conv2D)               (None, 18, 18, 192)   331776                                       
____________________________________________________________________________________________________
batch_normalization_72 (BatchNor (None, 18, 18, 320)   960                                          
____________________________________________________________________________________________________
batch_normalization_76 (BatchNor (None, 18, 18, 192)   576                                          
____________________________________________________________________________________________________
activation_121 (Activation)      (None, 18, 18, 320)   0                                            
____________________________________________________________________________________________________
activation_125 (Activation)      (None, 18, 18, 192)   0                                            
____________________________________________________________________________________________________
max_pooling2d_5 (MaxPooling2D)   (None, 18, 18, 768)   0                                            
____________________________________________________________________________________________________
mixed8 (Concatenate)             (None, 18, 18, 1280)  0                                            
____________________________________________________________________________________________________
conv2d_81 (Conv2D)               (None, 18, 18, 448)   573440                                       
____________________________________________________________________________________________________
batch_normalization_81 (BatchNor (None, 18, 18, 448)   1344                                         
____________________________________________________________________________________________________
activation_130 (Activation)      (None, 18, 18, 448)   0                                            
____________________________________________________________________________________________________
conv2d_78 (Conv2D)               (None, 18, 18, 384)   491520                                       
____________________________________________________________________________________________________
conv2d_82 (Conv2D)               (None, 18, 18, 384)   1548288                                      
____________________________________________________________________________________________________
batch_normalization_78 (BatchNor (None, 18, 18, 384)   1152                                         
____________________________________________________________________________________________________
batch_normalization_82 (BatchNor (None, 18, 18, 384)   1152                                         
____________________________________________________________________________________________________
activation_127 (Activation)      (None, 18, 18, 384)   0                                            
____________________________________________________________________________________________________
activation_131 (Activation)      (None, 18, 18, 384)   0                                            
____________________________________________________________________________________________________
conv2d_79 (Conv2D)               (None, 18, 18, 384)   442368                                       
____________________________________________________________________________________________________
conv2d_80 (Conv2D)               (None, 18, 18, 384)   442368                                       
____________________________________________________________________________________________________
conv2d_83 (Conv2D)               (None, 18, 18, 384)   442368                                       
____________________________________________________________________________________________________
conv2d_84 (Conv2D)               (None, 18, 18, 384)   442368                                       
____________________________________________________________________________________________________
average_pooling2d_8 (AveragePool (None, 18, 18, 1280)  0                                            
____________________________________________________________________________________________________
conv2d_77 (Conv2D)               (None, 18, 18, 320)   409600                                       
____________________________________________________________________________________________________
batch_normalization_79 (BatchNor (None, 18, 18, 384)   1152                                         
____________________________________________________________________________________________________
batch_normalization_80 (BatchNor (None, 18, 18, 384)   1152                                         
____________________________________________________________________________________________________
batch_normalization_83 (BatchNor (None, 18, 18, 384)   1152                                         
____________________________________________________________________________________________________
batch_normalization_84 (BatchNor (None, 18, 18, 384)   1152                                         
____________________________________________________________________________________________________
conv2d_85 (Conv2D)               (None, 18, 18, 192)   245760                                       
____________________________________________________________________________________________________
batch_normalization_77 (BatchNor (None, 18, 18, 320)   960                                          
____________________________________________________________________________________________________
activation_128 (Activation)      (None, 18, 18, 384)   0                                            
____________________________________________________________________________________________________
activation_129 (Activation)      (None, 18, 18, 384)   0                                            
____________________________________________________________________________________________________
activation_132 (Activation)      (None, 18, 18, 384)   0                                            
____________________________________________________________________________________________________
activation_133 (Activation)      (None, 18, 18, 384)   0                                            
____________________________________________________________________________________________________
batch_normalization_85 (BatchNor (None, 18, 18, 192)   576                                          
____________________________________________________________________________________________________
activation_126 (Activation)      (None, 18, 18, 320)   0                                            
____________________________________________________________________________________________________
mixed9_0 (Concatenate)           (None, 18, 18, 768)   0                                            
____________________________________________________________________________________________________
concatenate_1 (Concatenate)      (None, 18, 18, 768)   0                                            
____________________________________________________________________________________________________
activation_134 (Activation)      (None, 18, 18, 192)   0                                            
____________________________________________________________________________________________________
mixed9 (Concatenate)             (None, 18, 18, 2048)  0                                            
____________________________________________________________________________________________________
conv2d_90 (Conv2D)               (None, 18, 18, 448)   917504                                       
____________________________________________________________________________________________________
batch_normalization_90 (BatchNor (None, 18, 18, 448)   1344                                         
____________________________________________________________________________________________________
activation_139 (Activation)      (None, 18, 18, 448)   0                                            
____________________________________________________________________________________________________
conv2d_87 (Conv2D)               (None, 18, 18, 384)   786432                                       
____________________________________________________________________________________________________
conv2d_91 (Conv2D)               (None, 18, 18, 384)   1548288                                      
____________________________________________________________________________________________________
batch_normalization_87 (BatchNor (None, 18, 18, 384)   1152                                         
____________________________________________________________________________________________________
batch_normalization_91 (BatchNor (None, 18, 18, 384)   1152                                         
____________________________________________________________________________________________________
activation_136 (Activation)      (None, 18, 18, 384)   0                                            
____________________________________________________________________________________________________
activation_140 (Activation)      (None, 18, 18, 384)   0                                            
____________________________________________________________________________________________________
conv2d_88 (Conv2D)               (None, 18, 18, 384)   442368                                       
____________________________________________________________________________________________________
conv2d_89 (Conv2D)               (None, 18, 18, 384)   442368                                       
____________________________________________________________________________________________________
conv2d_92 (Conv2D)               (None, 18, 18, 384)   442368                                       
____________________________________________________________________________________________________
conv2d_93 (Conv2D)               (None, 18, 18, 384)   442368                                       
____________________________________________________________________________________________________
average_pooling2d_9 (AveragePool (None, 18, 18, 2048)  0                                            
____________________________________________________________________________________________________
conv2d_86 (Conv2D)               (None, 18, 18, 320)   655360                                       
____________________________________________________________________________________________________
batch_normalization_88 (BatchNor (None, 18, 18, 384)   1152                                         
____________________________________________________________________________________________________
batch_normalization_89 (BatchNor (None, 18, 18, 384)   1152                                         
____________________________________________________________________________________________________
batch_normalization_92 (BatchNor (None, 18, 18, 384)   1152                                         
____________________________________________________________________________________________________
batch_normalization_93 (BatchNor (None, 18, 18, 384)   1152                                         
____________________________________________________________________________________________________
conv2d_94 (Conv2D)               (None, 18, 18, 192)   393216                                       
____________________________________________________________________________________________________
batch_normalization_86 (BatchNor (None, 18, 18, 320)   960                                          
____________________________________________________________________________________________________
activation_137 (Activation)      (None, 18, 18, 384)   0                                            
____________________________________________________________________________________________________
activation_138 (Activation)      (None, 18, 18, 384)   0                                            
____________________________________________________________________________________________________
activation_141 (Activation)      (None, 18, 18, 384)   0                                            
____________________________________________________________________________________________________
activation_142 (Activation)      (None, 18, 18, 384)   0                                            
____________________________________________________________________________________________________
batch_normalization_94 (BatchNor (None, 18, 18, 192)   576                                          
____________________________________________________________________________________________________
activation_135 (Activation)      (None, 18, 18, 320)   0                                            
____________________________________________________________________________________________________
mixed9_1 (Concatenate)           (None, 18, 18, 768)   0                                            
____________________________________________________________________________________________________
concatenate_2 (Concatenate)      (None, 18, 18, 768)   0                                            
____________________________________________________________________________________________________
activation_143 (Activation)      (None, 18, 18, 192)   0                                            
____________________________________________________________________________________________________
mixed10 (Concatenate)            (None, 18, 18, 2048)  0                                            
====================================================================================================
Total params: 21,802,784
Trainable params: 21,768,352
Non-trainable params: 34,432
____________________________________________________________________________________________________
^^^^^^ top part of MIX model
____________________________________________________________________________________________________
Layer (type)                     Output Shape          Param #     Connected to                     
====================================================================================================
input_8 (InputLayer)             (None, 594)           0                                            
____________________________________________________________________________________________________
dense_6 (Dense)                  (None, 256)           152320                                       
____________________________________________________________________________________________________
input_9 (InputLayer)             (None, 18, 18, 2048)  0                                            
____________________________________________________________________________________________________
dropout_5 (Dropout)              (None, 256)           0                                            
____________________________________________________________________________________________________
flatten_2 (Flatten)              (None, 663552)        0                                            
____________________________________________________________________________________________________
concatenate_4 (Concatenate)      (None, 663808)        0                                            
____________________________________________________________________________________________________
dense_7 (Dense)                  (None, 256)           169935104                                    
____________________________________________________________________________________________________
dropout_6 (Dropout)              (None, 256)           0                                            
____________________________________________________________________________________________________
dense_8 (Dense)                  (None, 256)           65792                                        
____________________________________________________________________________________________________
dropout_7 (Dropout)              (None, 256)           0                                            
____________________________________________________________________________________________________
dense_9 (Dense)                  (None, 256)           65792                                        
____________________________________________________________________________________________________
dropout_8 (Dropout)              (None, 256)           0                                            
____________________________________________________________________________________________________
dense_10 (Dense)                 (None, 1)             257                                          
====================================================================================================
Total params: 170,219,265
Trainable params: 170,219,265
Non-trainable params: 0
____________________________________________________________________________________________________
^^^^^^ base part of MIX model
_________________________________________________________________
Layer (type)                 Output Shape              Param #   
=================================================================
input_3 (InputLayer)         (None, 640, 640, 3)       0         
_________________________________________________________________
block1_conv1 (Conv2D)        (None, 640, 640, 64)      1792      
_________________________________________________________________
block1_conv2 (Conv2D)        (None, 640, 640, 64)      36928     
_________________________________________________________________
block1_pool (MaxPooling2D)   (None, 320, 320, 64)      0         
_________________________________________________________________
block2_conv1 (Conv2D)        (None, 320, 320, 128)     73856     
_________________________________________________________________
block2_conv2 (Conv2D)        (None, 320, 320, 128)     147584    
_________________________________________________________________
block2_pool (MaxPooling2D)   (None, 160, 160, 128)     0         
_________________________________________________________________
block3_conv1 (Conv2D)        (None, 160, 160, 256)     295168    
_________________________________________________________________
block3_conv2 (Conv2D)        (None, 160, 160, 256)     590080    
_________________________________________________________________
block3_conv3 (Conv2D)        (None, 160, 160, 256)     590080    
_________________________________________________________________
block3_conv4 (Conv2D)        (None, 160, 160, 256)     590080    
_________________________________________________________________
block3_pool (MaxPooling2D)   (None, 80, 80, 256)       0         
_________________________________________________________________
block4_conv1 (Conv2D)        (None, 80, 80, 512)       1180160   
_________________________________________________________________
block4_conv2 (Conv2D)        (None, 80, 80, 512)       2359808   
_________________________________________________________________
block4_conv3 (Conv2D)        (None, 80, 80, 512)       2359808   
_________________________________________________________________
block4_conv4 (Conv2D)        (None, 80, 80, 512)       2359808   
_________________________________________________________________
block4_pool (MaxPooling2D)   (None, 40, 40, 512)       0         
_________________________________________________________________
block5_conv1 (Conv2D)        (None, 40, 40, 512)       2359808   
_________________________________________________________________
block5_conv2 (Conv2D)        (None, 40, 40, 512)       2359808   
_________________________________________________________________
block5_conv3 (Conv2D)        (None, 40, 40, 512)       2359808   
_________________________________________________________________
block5_conv4 (Conv2D)        (None, 40, 40, 512)       2359808   
_________________________________________________________________
block5_pool (MaxPooling2D)   (None, 20, 20, 512)       0         
=================================================================
Total params: 20,024,384
Trainable params: 20,024,384
Non-trainable params: 0
_________________________________________________________________
^^^^^^ top part of MIX model
____________________________________________________________________________________________________
Layer (type)                     Output Shape          Param #     Connected to                     
====================================================================================================
input_10 (InputLayer)            (None, 594)           0                                            
____________________________________________________________________________________________________
dense_11 (Dense)                 (None, 256)           152320                                       
____________________________________________________________________________________________________
input_11 (InputLayer)            (None, 20, 20, 512)   0                                            
____________________________________________________________________________________________________
dropout_9 (Dropout)              (None, 256)           0                                            
____________________________________________________________________________________________________
flatten_3 (Flatten)              (None, 204800)        0                                            
____________________________________________________________________________________________________
concatenate_5 (Concatenate)      (None, 205056)        0                                            
____________________________________________________________________________________________________
dense_12 (Dense)                 (None, 256)           52494592                                     
____________________________________________________________________________________________________
dropout_10 (Dropout)             (None, 256)           0                                            
____________________________________________________________________________________________________
dense_13 (Dense)                 (None, 256)           65792                                        
____________________________________________________________________________________________________
dropout_11 (Dropout)             (None, 256)           0                                            
____________________________________________________________________________________________________
dense_14 (Dense)                 (None, 256)           65792                                        
____________________________________________________________________________________________________
dropout_12 (Dropout)             (None, 256)           0                                            
____________________________________________________________________________________________________
dense_15 (Dense)                 (None, 1)             257                                          
====================================================================================================
Total params: 52,778,753
Trainable params: 52,778,753
Non-trainable params: 0
____________________________________________________________________________________________________
^^^^^^ base part of MIX model
_________________________________________________________________
Layer (type)                 Output Shape              Param #   
=================================================================
input_4 (InputLayer)         (None, 640, 640, 3)       0         
_________________________________________________________________
block1_conv1 (Conv2D)        (None, 640, 640, 64)      1792      
_________________________________________________________________
block1_conv2 (Conv2D)        (None, 640, 640, 64)      36928     
_________________________________________________________________
block1_pool (MaxPooling2D)   (None, 320, 320, 64)      0         
_________________________________________________________________
block2_conv1 (Conv2D)        (None, 320, 320, 128)     73856     
_________________________________________________________________
block2_conv2 (Conv2D)        (None, 320, 320, 128)     147584    
_________________________________________________________________
block2_pool (MaxPooling2D)   (None, 160, 160, 128)     0         
_________________________________________________________________
block3_conv1 (Conv2D)        (None, 160, 160, 256)     295168    
_________________________________________________________________
block3_conv2 (Conv2D)        (None, 160, 160, 256)     590080    
_________________________________________________________________
block3_conv3 (Conv2D)        (None, 160, 160, 256)     590080    
_________________________________________________________________
block3_pool (MaxPooling2D)   (None, 80, 80, 256)       0         
_________________________________________________________________
block4_conv1 (Conv2D)        (None, 80, 80, 512)       1180160   
_________________________________________________________________
block4_conv2 (Conv2D)        (None, 80, 80, 512)       2359808   
_________________________________________________________________
block4_conv3 (Conv2D)        (None, 80, 80, 512)       2359808   
_________________________________________________________________
block4_pool (MaxPooling2D)   (None, 40, 40, 512)       0         
_________________________________________________________________
block5_conv1 (Conv2D)        (None, 40, 40, 512)       2359808   
_________________________________________________________________
block5_conv2 (Conv2D)        (None, 40, 40, 512)       2359808   
_________________________________________________________________
block5_conv3 (Conv2D)        (None, 40, 40, 512)       2359808   
_________________________________________________________________
block5_pool (MaxPooling2D)   (None, 20, 20, 512)       0         
=================================================================
Total params: 14,714,688
Trainable params: 14,714,688
Non-trainable params: 0
_________________________________________________________________
^^^^^^ top part of MIX model
____________________________________________________________________________________________________
Layer (type)                     Output Shape          Param #     Connected to                     
====================================================================================================
input_12 (InputLayer)            (None, 594)           0                                            
____________________________________________________________________________________________________
dense_16 (Dense)                 (None, 256)           152320                                       
____________________________________________________________________________________________________
input_13 (InputLayer)            (None, 20, 20, 512)   0                                            
____________________________________________________________________________________________________
dropout_13 (Dropout)             (None, 256)           0                                            
____________________________________________________________________________________________________
flatten_4 (Flatten)              (None, 204800)        0                                            
____________________________________________________________________________________________________
concatenate_6 (Concatenate)      (None, 205056)        0                                            
____________________________________________________________________________________________________
dense_17 (Dense)                 (None, 256)           52494592                                     
____________________________________________________________________________________________________
dropout_14 (Dropout)             (None, 256)           0                                            
____________________________________________________________________________________________________
dense_18 (Dense)                 (None, 256)           65792                                        
____________________________________________________________________________________________________
dropout_15 (Dropout)             (None, 256)           0                                            
____________________________________________________________________________________________________
dense_19 (Dense)                 (None, 256)           65792                                        
____________________________________________________________________________________________________
dropout_16 (Dropout)             (None, 256)           0                                            
____________________________________________________________________________________________________
dense_20 (Dense)                 (None, 1)             257                                          
====================================================================================================
Total params: 52,778,753
Trainable params: 52,778,753
Non-trainable params: 0
____________________________________________________________________________________________________
^^^^^^ base part of MIX model
____________________________________________________________________________________________________
Layer (type)                     Output Shape          Param #     Connected to                     
====================================================================================================
input_5 (InputLayer)             (None, 640, 640, 3)   0                                            
____________________________________________________________________________________________________
block1_conv1 (Conv2D)            (None, 319, 319, 32)  864                                          
____________________________________________________________________________________________________
block1_conv1_bn (BatchNormalizat (None, 319, 319, 32)  128                                          
____________________________________________________________________________________________________
block1_conv1_act (Activation)    (None, 319, 319, 32)  0                                            
____________________________________________________________________________________________________
block1_conv2 (Conv2D)            (None, 317, 317, 64)  18432                                        
____________________________________________________________________________________________________
block1_conv2_bn (BatchNormalizat (None, 317, 317, 64)  256                                          
____________________________________________________________________________________________________
block1_conv2_act (Activation)    (None, 317, 317, 64)  0                                            
____________________________________________________________________________________________________
block2_sepconv1 (SeparableConv2D (None, 317, 317, 128) 8768                                         
____________________________________________________________________________________________________
block2_sepconv1_bn (BatchNormali (None, 317, 317, 128) 512                                          
____________________________________________________________________________________________________
block2_sepconv2_act (Activation) (None, 317, 317, 128) 0                                            
____________________________________________________________________________________________________
block2_sepconv2 (SeparableConv2D (None, 317, 317, 128) 17536                                        
____________________________________________________________________________________________________
block2_sepconv2_bn (BatchNormali (None, 317, 317, 128) 512                                          
____________________________________________________________________________________________________
conv2d_95 (Conv2D)               (None, 159, 159, 128) 8192                                         
____________________________________________________________________________________________________
block2_pool (MaxPooling2D)       (None, 159, 159, 128) 0                                            
____________________________________________________________________________________________________
batch_normalization_95 (BatchNor (None, 159, 159, 128) 512                                          
____________________________________________________________________________________________________
add_17 (Add)                     (None, 159, 159, 128) 0                                            
____________________________________________________________________________________________________
block3_sepconv1_act (Activation) (None, 159, 159, 128) 0                                            
____________________________________________________________________________________________________
block3_sepconv1 (SeparableConv2D (None, 159, 159, 256) 33920                                        
____________________________________________________________________________________________________
block3_sepconv1_bn (BatchNormali (None, 159, 159, 256) 1024                                         
____________________________________________________________________________________________________
block3_sepconv2_act (Activation) (None, 159, 159, 256) 0                                            
____________________________________________________________________________________________________
block3_sepconv2 (SeparableConv2D (None, 159, 159, 256) 67840                                        
____________________________________________________________________________________________________
block3_sepconv2_bn (BatchNormali (None, 159, 159, 256) 1024                                         
____________________________________________________________________________________________________
conv2d_96 (Conv2D)               (None, 80, 80, 256)   32768                                        
____________________________________________________________________________________________________
block3_pool (MaxPooling2D)       (None, 80, 80, 256)   0                                            
____________________________________________________________________________________________________
batch_normalization_96 (BatchNor (None, 80, 80, 256)   1024                                         
____________________________________________________________________________________________________
add_18 (Add)                     (None, 80, 80, 256)   0                                            
____________________________________________________________________________________________________
block4_sepconv1_act (Activation) (None, 80, 80, 256)   0                                            
____________________________________________________________________________________________________
block4_sepconv1 (SeparableConv2D (None, 80, 80, 728)   188672                                       
____________________________________________________________________________________________________
block4_sepconv1_bn (BatchNormali (None, 80, 80, 728)   2912                                         
____________________________________________________________________________________________________
block4_sepconv2_act (Activation) (None, 80, 80, 728)   0                                            
____________________________________________________________________________________________________
block4_sepconv2 (SeparableConv2D (None, 80, 80, 728)   536536                                       
____________________________________________________________________________________________________
block4_sepconv2_bn (BatchNormali (None, 80, 80, 728)   2912                                         
____________________________________________________________________________________________________
conv2d_97 (Conv2D)               (None, 40, 40, 728)   186368                                       
____________________________________________________________________________________________________
block4_pool (MaxPooling2D)       (None, 40, 40, 728)   0                                            
____________________________________________________________________________________________________
batch_normalization_97 (BatchNor (None, 40, 40, 728)   2912                                         
____________________________________________________________________________________________________
add_19 (Add)                     (None, 40, 40, 728)   0                                            
____________________________________________________________________________________________________
block5_sepconv1_act (Activation) (None, 40, 40, 728)   0                                            
____________________________________________________________________________________________________
block5_sepconv1 (SeparableConv2D (None, 40, 40, 728)   536536                                       
____________________________________________________________________________________________________
block5_sepconv1_bn (BatchNormali (None, 40, 40, 728)   2912                                         
____________________________________________________________________________________________________
block5_sepconv2_act (Activation) (None, 40, 40, 728)   0                                            
____________________________________________________________________________________________________
block5_sepconv2 (SeparableConv2D (None, 40, 40, 728)   536536                                       
____________________________________________________________________________________________________
block5_sepconv2_bn (BatchNormali (None, 40, 40, 728)   2912                                         
____________________________________________________________________________________________________
block5_sepconv3_act (Activation) (None, 40, 40, 728)   0                                            
____________________________________________________________________________________________________
block5_sepconv3 (SeparableConv2D (None, 40, 40, 728)   536536                                       
____________________________________________________________________________________________________
block5_sepconv3_bn (BatchNormali (None, 40, 40, 728)   2912                                         
____________________________________________________________________________________________________
add_20 (Add)                     (None, 40, 40, 728)   0                                            
____________________________________________________________________________________________________
block6_sepconv1_act (Activation) (None, 40, 40, 728)   0                                            
____________________________________________________________________________________________________
block6_sepconv1 (SeparableConv2D (None, 40, 40, 728)   536536                                       
____________________________________________________________________________________________________
block6_sepconv1_bn (BatchNormali (None, 40, 40, 728)   2912                                         
____________________________________________________________________________________________________
block6_sepconv2_act (Activation) (None, 40, 40, 728)   0                                            
____________________________________________________________________________________________________
block6_sepconv2 (SeparableConv2D (None, 40, 40, 728)   536536                                       
____________________________________________________________________________________________________
block6_sepconv2_bn (BatchNormali (None, 40, 40, 728)   2912                                         
____________________________________________________________________________________________________
block6_sepconv3_act (Activation) (None, 40, 40, 728)   0                                            
____________________________________________________________________________________________________
block6_sepconv3 (SeparableConv2D (None, 40, 40, 728)   536536                                       
____________________________________________________________________________________________________
block6_sepconv3_bn (BatchNormali (None, 40, 40, 728)   2912                                         
____________________________________________________________________________________________________
add_21 (Add)                     (None, 40, 40, 728)   0                                            
____________________________________________________________________________________________________
block7_sepconv1_act (Activation) (None, 40, 40, 728)   0                                            
____________________________________________________________________________________________________
block7_sepconv1 (SeparableConv2D (None, 40, 40, 728)   536536                                       
____________________________________________________________________________________________________
block7_sepconv1_bn (BatchNormali (None, 40, 40, 728)   2912                                         
____________________________________________________________________________________________________
block7_sepconv2_act (Activation) (None, 40, 40, 728)   0                                            
____________________________________________________________________________________________________
block7_sepconv2 (SeparableConv2D (None, 40, 40, 728)   536536                                       
____________________________________________________________________________________________________
block7_sepconv2_bn (BatchNormali (None, 40, 40, 728)   2912                                         
____________________________________________________________________________________________________
block7_sepconv3_act (Activation) (None, 40, 40, 728)   0                                            
____________________________________________________________________________________________________
block7_sepconv3 (SeparableConv2D (None, 40, 40, 728)   536536                                       
____________________________________________________________________________________________________
block7_sepconv3_bn (BatchNormali (None, 40, 40, 728)   2912                                         
____________________________________________________________________________________________________
add_22 (Add)                     (None, 40, 40, 728)   0                                            
____________________________________________________________________________________________________
block8_sepconv1_act (Activation) (None, 40, 40, 728)   0                                            
____________________________________________________________________________________________________
block8_sepconv1 (SeparableConv2D (None, 40, 40, 728)   536536                                       
____________________________________________________________________________________________________
block8_sepconv1_bn (BatchNormali (None, 40, 40, 728)   2912                                         
____________________________________________________________________________________________________
block8_sepconv2_act (Activation) (None, 40, 40, 728)   0                                            
____________________________________________________________________________________________________
block8_sepconv2 (SeparableConv2D (None, 40, 40, 728)   536536                                       
____________________________________________________________________________________________________
block8_sepconv2_bn (BatchNormali (None, 40, 40, 728)   2912                                         
____________________________________________________________________________________________________
block8_sepconv3_act (Activation) (None, 40, 40, 728)   0                                            
____________________________________________________________________________________________________
block8_sepconv3 (SeparableConv2D (None, 40, 40, 728)   536536                                       
____________________________________________________________________________________________________
block8_sepconv3_bn (BatchNormali (None, 40, 40, 728)   2912                                         
____________________________________________________________________________________________________
add_23 (Add)                     (None, 40, 40, 728)   0                                            
____________________________________________________________________________________________________
block9_sepconv1_act (Activation) (None, 40, 40, 728)   0                                            
____________________________________________________________________________________________________
block9_sepconv1 (SeparableConv2D (None, 40, 40, 728)   536536                                       
____________________________________________________________________________________________________
block9_sepconv1_bn (BatchNormali (None, 40, 40, 728)   2912                                         
____________________________________________________________________________________________________
block9_sepconv2_act (Activation) (None, 40, 40, 728)   0                                            
____________________________________________________________________________________________________
block9_sepconv2 (SeparableConv2D (None, 40, 40, 728)   536536                                       
____________________________________________________________________________________________________
block9_sepconv2_bn (BatchNormali (None, 40, 40, 728)   2912                                         
____________________________________________________________________________________________________
block9_sepconv3_act (Activation) (None, 40, 40, 728)   0                                            
____________________________________________________________________________________________________
block9_sepconv3 (SeparableConv2D (None, 40, 40, 728)   536536                                       
____________________________________________________________________________________________________
block9_sepconv3_bn (BatchNormali (None, 40, 40, 728)   2912                                         
____________________________________________________________________________________________________
add_24 (Add)                     (None, 40, 40, 728)   0                                            
____________________________________________________________________________________________________
block10_sepconv1_act (Activation (None, 40, 40, 728)   0                                            
____________________________________________________________________________________________________
block10_sepconv1 (SeparableConv2 (None, 40, 40, 728)   536536                                       
____________________________________________________________________________________________________
block10_sepconv1_bn (BatchNormal (None, 40, 40, 728)   2912                                         
____________________________________________________________________________________________________
block10_sepconv2_act (Activation (None, 40, 40, 728)   0                                            
____________________________________________________________________________________________________
block10_sepconv2 (SeparableConv2 (None, 40, 40, 728)   536536                                       
____________________________________________________________________________________________________
block10_sepconv2_bn (BatchNormal (None, 40, 40, 728)   2912                                         
____________________________________________________________________________________________________
block10_sepconv3_act (Activation (None, 40, 40, 728)   0                                            
____________________________________________________________________________________________________
block10_sepconv3 (SeparableConv2 (None, 40, 40, 728)   536536                                       
____________________________________________________________________________________________________
block10_sepconv3_bn (BatchNormal (None, 40, 40, 728)   2912                                         
____________________________________________________________________________________________________
add_25 (Add)                     (None, 40, 40, 728)   0                                            
____________________________________________________________________________________________________
block11_sepconv1_act (Activation (None, 40, 40, 728)   0                                            
____________________________________________________________________________________________________
block11_sepconv1 (SeparableConv2 (None, 40, 40, 728)   536536                                       
____________________________________________________________________________________________________
block11_sepconv1_bn (BatchNormal (None, 40, 40, 728)   2912                                         
____________________________________________________________________________________________________
block11_sepconv2_act (Activation (None, 40, 40, 728)   0                                            
____________________________________________________________________________________________________
block11_sepconv2 (SeparableConv2 (None, 40, 40, 728)   536536                                       
____________________________________________________________________________________________________
block11_sepconv2_bn (BatchNormal (None, 40, 40, 728)   2912                                         
____________________________________________________________________________________________________
block11_sepconv3_act (Activation (None, 40, 40, 728)   0                                            
____________________________________________________________________________________________________
block11_sepconv3 (SeparableConv2 (None, 40, 40, 728)   536536                                       
____________________________________________________________________________________________________
block11_sepconv3_bn (BatchNormal (None, 40, 40, 728)   2912                                         
____________________________________________________________________________________________________
add_26 (Add)                     (None, 40, 40, 728)   0                                            
____________________________________________________________________________________________________
block12_sepconv1_act (Activation (None, 40, 40, 728)   0                                            
____________________________________________________________________________________________________
block12_sepconv1 (SeparableConv2 (None, 40, 40, 728)   536536                                       
____________________________________________________________________________________________________
block12_sepconv1_bn (BatchNormal (None, 40, 40, 728)   2912                                         
____________________________________________________________________________________________________
block12_sepconv2_act (Activation (None, 40, 40, 728)   0                                            
____________________________________________________________________________________________________
block12_sepconv2 (SeparableConv2 (None, 40, 40, 728)   536536                                       
____________________________________________________________________________________________________
block12_sepconv2_bn (BatchNormal (None, 40, 40, 728)   2912                                         
____________________________________________________________________________________________________
block12_sepconv3_act (Activation (None, 40, 40, 728)   0                                            
____________________________________________________________________________________________________
block12_sepconv3 (SeparableConv2 (None, 40, 40, 728)   536536                                       
____________________________________________________________________________________________________
block12_sepconv3_bn (BatchNormal (None, 40, 40, 728)   2912                                         
____________________________________________________________________________________________________
add_27 (Add)                     (None, 40, 40, 728)   0                                            
____________________________________________________________________________________________________
block13_sepconv1_act (Activation (None, 40, 40, 728)   0                                            
____________________________________________________________________________________________________
block13_sepconv1 (SeparableConv2 (None, 40, 40, 728)   536536                                       
____________________________________________________________________________________________________
block13_sepconv1_bn (BatchNormal (None, 40, 40, 728)   2912                                         
____________________________________________________________________________________________________
block13_sepconv2_act (Activation (None, 40, 40, 728)   0                                            
____________________________________________________________________________________________________
block13_sepconv2 (SeparableConv2 (None, 40, 40, 1024)  752024                                       
____________________________________________________________________________________________________
block13_sepconv2_bn (BatchNormal (None, 40, 40, 1024)  4096                                         
____________________________________________________________________________________________________
conv2d_98 (Conv2D)               (None, 20, 20, 1024)  745472                                       
____________________________________________________________________________________________________
block13_pool (MaxPooling2D)      (None, 20, 20, 1024)  0                                            
____________________________________________________________________________________________________
batch_normalization_98 (BatchNor (None, 20, 20, 1024)  4096                                         
____________________________________________________________________________________________________
add_28 (Add)                     (None, 20, 20, 1024)  0                                            
____________________________________________________________________________________________________
block14_sepconv1 (SeparableConv2 (None, 20, 20, 1536)  1582080                                      
____________________________________________________________________________________________________
block14_sepconv1_bn (BatchNormal (None, 20, 20, 1536)  6144                                         
____________________________________________________________________________________________________
block14_sepconv1_act (Activation (None, 20, 20, 1536)  0                                            
____________________________________________________________________________________________________
block14_sepconv2 (SeparableConv2 (None, 20, 20, 2048)  3159552                                      
____________________________________________________________________________________________________
block14_sepconv2_bn (BatchNormal (None, 20, 20, 2048)  8192                                         
____________________________________________________________________________________________________
block14_sepconv2_act (Activation (None, 20, 20, 2048)  0                                            
====================================================================================================
Total params: 20,861,480
Trainable params: 20,806,952
Non-trainable params: 54,528
____________________________________________________________________________________________________
^^^^^^ top part of MIX model
____________________________________________________________________________________________________
Layer (type)                     Output Shape          Param #     Connected to                     
====================================================================================================
input_14 (InputLayer)            (None, 594)           0                                            
____________________________________________________________________________________________________
dense_21 (Dense)                 (None, 256)           152320                                       
____________________________________________________________________________________________________
input_15 (InputLayer)            (None, 20, 20, 2048)  0                                            
____________________________________________________________________________________________________
dropout_17 (Dropout)             (None, 256)           0                                            
____________________________________________________________________________________________________
flatten_5 (Flatten)              (None, 819200)        0                                            
____________________________________________________________________________________________________
concatenate_7 (Concatenate)      (None, 819456)        0                                            
____________________________________________________________________________________________________
dense_22 (Dense)                 (None, 256)           209780992                                    
____________________________________________________________________________________________________
dropout_18 (Dropout)             (None, 256)           0                                            
____________________________________________________________________________________________________
dense_23 (Dense)                 (None, 256)           65792                                        
____________________________________________________________________________________________________
dropout_19 (Dropout)             (None, 256)           0                                            
____________________________________________________________________________________________________
dense_24 (Dense)                 (None, 256)           65792                                        
____________________________________________________________________________________________________
dropout_20 (Dropout)             (None, 256)           0                                            
____________________________________________________________________________________________________
dense_25 (Dense)                 (None, 1)             257                                          
====================================================================================================
Total params: 210,065,153
Trainable params: 210,065,153
Non-trainable params: 0
____________________________________________________________________________________________________
## Testing 5 models.
Regular testing resnet50_cnn [<keras.engine.training.Model object at 0x2b8566b8fb90>, <keras.engine.training.Model object at 0x2b863941ee50>]
…
